torch2matlab/DDPG_critic.onnx (onnx, 12702 bytes, 9 tensors)

fc1_state.weight f4 [32, 3]
00000000: af8e 083f 096b d43f 631d de3e ef4b 6e3f
00000010: 7806 95bf 455e b2be e2b1 d33e 983e e63d
00000020: 74b9 613e a046 8cbf 804a 8d3f 87f1 8bbc
00000030: 530b d53b 7b86 92bf f6b2 583b 5324 b8be
00000040: 4352 b63d 4dd7 21be 13c2 a13f a34e 72bf
00000050: 8455 97be bfe6 09bf 0da9 e6be 2b69 b03e
00000060: 7ced b53d 91a3 833f c54f 31bf 6aca 783f
00000070: 7422 c1bf 033d ebbe e13b 90be b0d9 233e
00000080: 7d44 70be 6819 433e 00af e43f 1cda a43e
00000090: 1e71 f3be a80b aabf 7aba 7cbe 63fb f93e
000000a0: 679a f33f e8ba ad3e 6c52 a7be 134c a83f
000000b0: 0918 9c3d 9ea9 76bf e8f7 8d3e e6fa 5ebe
000000c0: 23bf d8bf 104e 7e3e bb78 0d3d 8cd7 063f
000000d0: fe26 4b3f 0631 593e 0411 ab3f 333c 8a3f
000000e0: 1ada cc3e 73b3 2d3f 3e63 cb3f 77d1 d43e
000000f0: 102b d9bb 7533 99be 698f 4b3e a755 64bf
00000100: c964 89bf e46e 7fbe 047e 823f 39f2 85bf
00000110: 77c8 82be 2ab1 88bf 2af0 b9bf 2090 43bd
00000120: 8faf 423e e519 09bf fcee b43d bfaa e6bd
00000130: b7e1 e5bf e5d1 1bbe a94b 893e 595d 15c0
00000140: 23fb a6be 9df6 0dbf 60b1 ee3f 5e35 ac3e
00000150: a15c 6f3f 545e a73f 98ae c43e 7921 0b3f
00000160: 9f70 a7be ec0e abbe e415 353f 8328 373f
00000170: 2eb1 143e 7dd0 743d ce0b 0c40 ef1c 163e
0.5334272 1.6595165 0.43381795 0.93084615 -1.1642599 -0.34837547 0.4134665 0.112424076
0.22043401 -1.0959053 1.103836 -0.017082943 0.006501594 -1.144729 0.0033065653 -0.35965213
0.08902409 -0.15804787 1.2637352 -0.9465124 -0.2955743 -0.53867716 -0.4505085 0.34455237
0.08883187 1.0284292 -0.69262344 0.9718386 -1.5088639 -0.45944986 -0.28170684 0.1600101
-0.23463626 0.1905266 1.7865906 0.32197654 -0.4754724 -1.3284807 -0.2468051 0.48824605
1.9031495 0.3393166 -0.3268007 1.3148216 0.07621772 -0.96352565 0.277282 -0.21775398
-1.693333 0.24834466 0.034538966 0.5267265 0.7935637 0.21210107 1.3364568 1.0799621
0.40010148 0.6785194 1.5889661 0.4156606 -0.006627448 -0.2992207 0.19878925 -0.89193195
-1.0733882 -0.24944645 1.0194707 -1.0464545 -0.25543568 -1.0679066 -1.4526417 -0.04774487
0.19012283 -0.53555137 0.08834645 -0.11263036 -1.7959508 -0.15216787 0.26815537 -2.3338225
-0.32613477 -0.55454427 1.864788 0.33634466 0.93500715 1.3075662 0.38414454 0.5434795
-0.3270311 -0.33409822 0.7073653 0.7154619 0.14520714 0.059769142 2.1882205 0.14659475

fc1_state.bias f4 [32]
00000000: bbd4 dbbd cc66 f53e 7d88 873e e446 03be
00000010: 4c72 50bf 614d a33e 0c77 8dbe ab71 5dbf
00000020: d252 a8bd 5b29 36bf cd5a 6abf 29bd 7d3c
00000030: 0f72 173d 29f7 43bf 3c4f 533e 5380 4dbf
00000040: 91e0 c93e b632 193f 74c6 54bf 42ff 6cbf
00000050: 42e2 193f f964 b23e da1f d7bd a467 4cbe
00000060: 4514 08be 963a 7abf 530b 5fbf 3dd3 0b3e
00000070: 7e81 f7be a1a0 90bf 8642 fc3d a131 74be
-0.107339345 0.4792999 0.2647132 -0.12820011 -0.81424403 0.31894973 -0.27629888 -0.8650157
-0.08218922 -0.71156853 -0.915448 0.015486994 0.03697401 -0.7654901 0.20635694 -0.8027393
0.39429143 0.59843004 -0.83115315 -0.9257699 0.6011087 0.3484266 -0.10504122 -0.19961411
-0.13288982 -0.97745645 -0.87126654 0.136548 -0.48340982 -1.129902 0.12317376 -0.23847057

fc1_action.weight f4 [32, 1]
00000000: fa23 b9be 403b cdbd 42d8 373e 802b 2c3c
00000010: 1924 ab3c 8301 cb3d e654 d33e 0836 0f3e
00000020: 6119 ee3e 6f1f 71be 2091 643e 6934 6e3e
00000030: 766c a63e 30cb c1be f479 173f d557 5f3e
00000040: d09c a23e 41cb 3cbe a8db 2e3e 2ca2 333d
00000050: 40f1 713e 77ba ad3d fda1 03bf 61da 913d
00000060: 252b 32bd d734 dbbe efd7 b73d a082 273b
00000070: 1011 c33d b19c 613e 74cf 2e3e 0dd1 9a3d
-0.3616026 -0.10021067 0.1795359 0.010508418 0.020891236 0.09912398 0.4127571 0.13985455
0.46503738 -0.23547147 0.22320986 0.2326218 0.32504624 -0.37850332 0.5917046 0.21810849
0.31760263 -0.1843691 0.1707598 0.04385583 0.23627186 0.08482831 -0.5141905 0.071217306
-0.043498177 -0.4281375 0.08976733 0.0025560036 0.09524739 0.2203243 0.17071325 0.075594045

fc1_action.bias f4 [32]
00000000: 25d7 b43e 3005 03bf 1316 d6be 0cc8 98be
00000010: 0fea a1bd 1c20 52be cce6 763f fab7 77bf
00000020: 814f 7d3f 4540 24be 3904 f0be c39a efbe
00000030: acce 29bf a037 06bf 4d19 17bf 2757 e3be
00000040: 3235 2abf da64 e9be d6e3 02bf 8a64 cbbd
00000050: 5d4e fabe 7349 2ebe 1497 823f e6b0 173f
00000060: b020 b5bd fd49 263f 699b 463f 4e12 0dbc
00000070: 8249 62be 1650 eabe 2e76 b4be 46fb 2bbe
0.35320392 -0.5117979 -0.41813716 -0.29840124 -0.07905971 -0.20520061 0.9644592 -0.967651
0.9894944 -0.16040142 -0.46878222 -0.4679776 -0.6633098 -0.52428627 -0.5902298 -0.4440243
-0.6648742 -0.45584756 -0.511289 -0.09931286 -0.4888791 -0.17020206 1.0202355 0.592543
-0.08844125 0.6495665 0.7758089 -0.008610321 -0.22098354 -0.45764226 -0.35246414 -0.16795072

fc2.weight f4 [32, 64]
00000000: b429 0ebe e9f2 5cbe 1991 2abd 6717 56be
00000010: 1ee0 433f a5d4 6cbd f3c4 89bf 1d6f 91bf
00000020: c997 533d c152 8abf db89 adbe 6fc2 c7be
00000030: 7123 10be 472d 83bf 760d f93c 7004 a63f
00000040: 63f9 1dbe 42ad 0f3e fe97 4c3b e2d9 dc3e
00000050: 3f67 d2bc 0476 94bf a3ae bebe ccb6 87be
00000060: b20a 53bf f2d0 31bf 979c 2bc0 0221 623e
00000070: 82c6 243e 2024 063e 886d 043d 0d1e 933e
00000080: 5b0e 553c 4c92 21bd c64f 2e3f 34b0 ac3d
00000090: af74 3c3e 9a34 3f3e f516 9e3e 0056 833b
000000a0: 2f47 803e dd99 aa3e f7cd 153d 8f88 823e
000000b0: a90d 6d3d 9431 403d a3ad a0bf 9353 c53e
000000c0: 1bd4 163f 70b8 4d3d ae35 d23d 7ae3 e13d
000000d0: e5b1 b83d 8916 9d3e 4c49 6b3e 0833 0f3e
000000e0: ca27 01bd 5c80 6a3d 9508 a13e 492f 9dbd
000000f0: e4b1 453e 63ba 023d b198 983d 0251 2a3d
00000100: 302d 0bbe 0778 80bd 3fd0 85bd 1b23 bfbe
00000110: 048f c2bf f8cf 723e 85d4 09bf fa90 ca3d
00000120: c609 7f3e 6581 9cbf 72c4 223f d259 cbbe
00000130: 7084 20bf 2d55 dbbe df1a 34be 2f0e 7f3e
00000140: cd48 173e d059 c7bd 01f6 8f3e 3b75 5bbe
00000150: e102 ffbd bea5 8bbe e1bc 16bf f0cc 3bbf
00000160: 326d e83d 104c 4dbf e52c 61be aa27 02bf
00000170: f11d e13e 93d1 563d f892 f23c 4b76 17bf
00000180: 5393 1cbf c881 3b3d 7ca7 5f3e 00c0 c93d
00000190: 55fa fd3c d483 7b3d 1f9f 95bd b020 4c3d
000001a0: ff9d 73bc c92a a6bf a559 f53d fa60 903e
000001b0: f17a 893e 2a85 01be 39b2 8c3d 795a 4cbd
000001c0: dd73 a93e 2009 7cbd e058 3b3d 4d48 f53c
000001d0: 168e 99bd ffcc 07be 32b7 02bf 255c cabd
000001e0: f9a3 08be 1e21 dfbe a8dd 56be 128e a3bd
000001f0: 9504 24be c92f 453e c7fa 3e3d ade0 c13d
00000200: 10da 073d bb9b a83e 98aa 2a3e f9d2 b5bd
00000210: ec11 953b 0beb 57bd be61 5c3e 4ccf b83e
00000220: 98b7 7b3e 5a24 82be a263 603e 0ca1 94bc
00000230: d69e e2bd 2cfb d6bd f9c9 0b3b c61e 1b3e
00000240: 0790 113e fa74 9a3e 243b 25bc 7eb1 49bf
00000250: bdce 893e 6357 a2be bc20 4c3e a19f bc3c
00000260: dab5 a73d 949e 423d 14ca 81be d1cc 7ebe
00000270: 8f52 c23c e92f 403d 9b26 843e be9b 1b3e
00000280: ca61 c33e 007f cd3b 1255 adbc 2cc3 f93d
00000290: 050c 9c3c f52b bcbc 41e4 c63e 7681 c3bd
000002a0: f25a d83e 4f90 1a3e 2bc0 31bd a45a 1cbe
000002b0: b85d 9fbd 6aa2 97bc fe7b 87be e549 50be
000002c0: 8e43 c2be 353b 5a3c 8c30 7fbd 7f60 e4bd
000002d0: 9ab1 59be 5706 13be 3af1 033f c147 843e
000002e0: 85b8 a33d 141e cf3e a69d aa3e 8bb2 c13d
000002f0: 4e36 1dbd 6562 66be 1ce6 6e3d 1062 353d
00000300: 28e6 c5be 1a57 0bbf 903d b8bc d89e 933e
00000310: 01fd 76bf 3c68 b4bd ead8 b4bf a8ba 623e
00000320: 55d6 70be 9414 f1be 1e66 01bf 0a9b d4be
00000330: 776a fcbe cfff 81bd e81c cc3d 0ea5 2abc
00000340: 3272 843f 993d a6be bf42 573e 758a 38bf
00000350: 5db8 c53e 00a1 ad3e 3d48 39bf 9e8a 913e
00000360: d8e4 fdbe 2f42 10c0 afbd b9be 10a9 c93e
00000370: 81c0 2e3c 35ab 5bbe 3fff 84be 3de8 6abe
00000380: 57ca aabc 0031 2a3b 94d0 ffbc 6649 93bd
00000390: be8e 1d3d b5d9 3d3e c190 243d 007a fe3d
000003a0: f2b3 6c3e b842 84bd 2939 02bd 7bd7 2dbd
000003b0: a4ec 903e f4ca 083f 1c4a 0fbe e2a3 bebd
000003c0: 4bae c3be c4e7 263d 089d 30bd 5285 023e
000003d0: 2ef4 393d 1329 23be 6bcb ed3d 20bc d73d
000003e0: 597d 20be 093b d9bc 9e9c a63d 71e3 69bd
000003f0: 1bab 063e 8c7a 98bb 1313 bd3b 971e dcbc
-0.13883096 -0.21577038 -0.041642282 -0.20907365 0.7651385 -0.05781998 -1.0763229 -1.1362034
0.051658425 -1.0806504 -0.33894238 -0.3901553 -0.1407602 -1.0248193 0.030401926 1.2970104
-0.15427165 0.14030936 0.0031218524 0.4313498 -0.025683997 -1.1598516 -0.37242612 -0.2650665
-0.82438195 -0.6945945 -2.6814325 0.22082904 0.1609135 0.13099718 0.03233102 0.28733864
0.013003911 -0.03944616 0.68090475 0.084320456 0.18403886 0.1867241 0.3087689 0.0040080547
0.2505431 0.33320513 0.036573377 0.2549481 0.057874355 0.04692228 -1.255299 0.38540325
0.589174 0.05022472 0.10264145 0.11029716 0.09018306 0.30681255 0.2297718 0.1398431
-0.031532086 0.05725132 0.3145186 -0.076750346 0.19306141 0.031916033 0.074509986 0.04158116
-0.13591456 -0.062728934 -0.065338604 -0.3733147 -1.5199895 0.23712146 -0.53839904 0.09890933
0.24906072 -1.2226988 0.63581 -0.39716965 -0.62702084 -0.4283842 -0.17588376 0.24907754
0.14773865 -0.09733927 0.28117374 -0.21431439 -0.12451721 -0.2727489 -0.58881956 -0.73359585
0.11348952 -0.8019419 -0.21989782 -0.5084177 0.43968156 0.05244596 0.029611096 -0.59164876
-0.611623 0.045778066 0.21841234 0.09851074 0.031003157 0.061405018 -0.073057406 0.04983586
-0.014869212 -1.2981807 0.11979989 0.28198987 0.2685161 -0.12648454 0.06869931 -0.04989097
0.3309621 -0.06153214 0.045739055 0.029941702 -0.07497804 -0.13261794 -0.51060784 -0.098808564
-0.133438 -0.43579954 -0.20982993 -0.07986082 -0.16017373 0.1925651 0.04662588 0.09466682
0.033166945 0.32931313 0.16666639 -0.088781305 0.0045492556 -0.05271439 0.2152166 0.36095655
0.24581754 -0.2541836 0.21913007 -0.0181432 -0.11065452 -0.10497126 0.0021330102 0.15148458
0.14215098 0.3016737 -0.010084901 -0.78786457 0.2691554 -0.31707296 0.19934362 0.023025336
0.08188982 0.047514513 -0.25349486 -0.24882819 0.023721008 0.04692069 0.25810704 0.1519613
0.38160545 0.006271243 -0.021158729 0.12195429 0.0190487 -0.02297018 0.3884602 -0.09546177
0.42256886 0.15094112 -0.043396156 -0.15268952 -0.07781547 -0.018510062 -0.26461786 -0.20340689
-0.37942165 0.01331978 -0.062302157 -0.11151218 -0.21259156 -0.14357887 0.5153996 0.25835994
0.07994179 0.40452635 0.333234 0.094578825 -0.038381867 -0.22498472 0.05832492 0.044282973
-0.38652158 -0.5442978 -0.022490293 0.28832126 -0.96479803 -0.08808944 -1.4128697 0.22141516
-0.23519261 -0.47086012 -0.50546443 -0.41524535 -0.49299976 -0.0634762 0.09966451 -0.010415329
1.034735 -0.3246887 0.21021555 -0.7208627 0.3861722 0.33911896 -0.7237585 0.2842607
-0.49588656 -2.2540395 -0.3627753 0.39386797 0.010666014 -0.21452029 -0.25975987 -0.22940154
-0.020848436 0.0025969148 -0.031227387 -0.07191734 0.038466208 0.1854008 0.04017711 0.124256134
0.23115519 -0.06458038 -0.031792793 -0.042441826 0.28305542 0.5343468 -0.13993114 -0.09308602
-0.38218912 0.040748373 -0.043118507 0.1274617 0.045398884 -0.15933637 0.116110645 0.10533929
-0.15672816 -0.026517408 0.08135341 -0.05710167 0.13151209 -0.0046532806 0.005770096 -0.026870055

fc2.bias f4 [32]
00000000: 6096 a73e b6a7 84be 8f5d fc3e dcb8 0c3e
00000010: 9945 183e 87c6 343d 1be5 103e e57c d83e
00000020: 790a 91be c9a4 1ebc c079 703e fe8c bfbd
00000030: 8341 0ebe cd9e 53be de0c a6bc ae68 d53e
00000040: 1695 aa3d b3af 22be c00d 233f b2a1 8e3e
00000050: 67d5 103d f52d 83be 3bc3 1a3f 0d33 5a3d
00000060: ab4e dcbd b956 593d f926 09be 0b26 513b
00000070: 8dea e2be f22b 90bd 439c acbc 75b1 f23e
0.32731915 -0.25909203 0.4929013 0.13742393 0.148703 0.044134643 0.14149897 0.42282787
-0.28328303 -0.0096828425 0.23483944 -0.09353064 -0.13892178 -0.20666046 -0.020269807 0.41681427
0.08329217 -0.15887336 0.63692856 0.2785774 0.035359766 -0.25621 0.6045415 0.053271342
-0.10757192 0.05306122 -0.13393773 0.0031913545 -0.44319573 -0.07039632 -0.021070605 0.47401014

fc3.weight f4 [16, 32]
00000000: 367a dc3d 1888 df3d 9f17 a5be dc19 53be
00000010: ef3f c7bd 53aa 2bbb 480c 64be d1bc 0cbe
00000020: ffab 8d3b 05ce f93d f89c 33be fcd7 403d
00000030: e0a6 adbe 497f 1e3d 5b9b 1dbd 37bb 56be
00000040: 4e47 b7bd 4047 8c3d d8c8 353c d218 c5bd
00000050: 92ce f7bc 894d 21bc 9233 cc3c 399a 84bd
00000060: daf0 f4bd 5276 073e 7cd6 92bd 5658 3139
00000070: 4121 353d 73f1 b03d e263 7bbe 4f09 80be
00000080: fdff 13be bf38 99bd ab9d 0fbd 329d 893d
00000090: b15c b03d 77b3 f1bd ebae 873d 3683 30be
000000a0: 46dc 1ebe 0ec4 323c 43c7 cfbc 3332 aabc
000000b0: bfec 15be 2266 edbd 9a66 b43d fec6 1bbd
000000c0: 96fb 1dbe c990 cabd 2708 34be c6b0 cebc
000000d0: 47e0 00bd 125c 033e be51 a1bb 75f2 03be
000000e0: c7de adbd 65ed 273e a8d9 8bbc 1b0d cb3d
000000f0: 9cd2 2f3e 9a96 08be 36af 81bd 5c62 cf3d
00000100: 0cfb d9be 8e69 4fbd 1732 b53c 34ff a4bf
00000110: 2fa7 22bf d9ec 94bd 5011 b9bd da17 9abe
00000120: f05a 30c0 75db c6bf 760d 663f 0d15 86bf
00000130: 3f32 b0bf ef4b 98bf 10ca 9ebf 07e2 1d3d
00000140: 169d df3e 21b3 233f 918a 11be d54c 203f
00000150: 172a b4bd 6c4a 13bf dd1c cfbd 4bf3 59bf
00000160: 02b2 f43e 5785 16be a3cf c1bf 427f 06c0
00000170: 528a d1bf d648 cc3e 382f 213e 87dd d83c
00000180: 9b77 7fbe ae28 54be cb8e d63e 315c adbe
00000190: 9e26 ae3e ac94 acbd 35ed 2f3c be56 e63d
000001a0: 963b 9abe 7846 39bd ec31 853e 93e8 9ebe
000001b0: 8096 793d 9f4e 80be 480f 46bb d755 2b3e
000001c0: 53c8 34bf 19a2 dfbc b0ae ce3e 7185 bf3d
000001d0: dc7e 423b c2c0 b1be 0d28 ab3e 3482 173d
000001e0: 32cb 2bbe 7c68 c1bd 7386 bbbe 3b6c 5abe
000001f0: f858 a0be ea3d 863e 0b66 3abf 73a5 533e
00000200: cac8 903f a0d6 dbbf 331d 823e c393 cabf
00000210: ef16 b0bf 3674 d5bc bd7b 08be 384e 86bf
00000220: 444a a1be 23b4 4f3f 8736 22bf 8cc3 dfbd
00000230: ebbc 3539 b4cf 65be 6cd9 e4be 40e5 9ebd
00000240: c3cd 4cbf 1669 6abe 2571 803e 0486 4bc0
00000250: a7c3 be3d fdbe 55bf 295a 883e a4e1 8a3c
00000260: 59d4 9dbf db07 103e 7876 1a3e 947d 35bf
00000270: f9b6 20bf 0755 393f 6e22 aebd 24f6 6e3e
00000280: f2a1 0f3d 6553 8d3d 094e 893e f9bf 2d3e
00000290: 2f83 9b3d da76 093e 9381 d5bd 7fd0 7e3e
000002a0: cd77 13bf 036e 18bf 8928 4fbd fa96 983e
000002b0: 2e00 4fbd c9f2 87be c560 d7be 4eb3 fd3d
000002c0: 9fd7 13be 30b4 88bd 2ac1 943e 06dc 263d
000002d0: 0128 01be e8fb 22be 71c2 bd3e 0b3c d6be
000002e0: 7f2c ecbe b457 9dbd fe85 a4bc bcce 313e
000002f0: 73e7 97bd fe0f 593e f152 cd3d 5216 4b3e
00000300: a36a 763d 3d29 683d 5d6d 80be 8e1a 03be
00000310: 1a44 1abe 6326 32bd e1f8 a3be 3589 68be
00000320: e2df ea3d 7419 fd3c 15ab 2dbe 168e 3abd
00000330: 5bc3 6abe 1bed 4d3b e404 963b 6efa e43c
00000340: ed07 22bd dd00 363e 69d1 01bd 0f35 a3be
00000350: ac26 e13d c33f 3f3d be24 97bd d384 59be
00000360: 9c07 b13c 3609 2f3e e1ca ef3d 1e19 c33d
00000370: 4c97 133d 6b05 173c 9226 d3bd 6f0b 53be
00000380: 6813 b03e 74de 033c 6cfc d23e b62f 86be
00000390: 569f 823e 221b 32bd 8662 203e 789b 863e
000003a0: 797e 71be 3f27 6f3d 9944 903e d1c6 6ebe
000003b0: e86a 693e 1be5 bdbd 6c3a d1be da31 523e
000003c0: 92a3 5fbe 0f50 9ebc e9c4 fc3e e9dd 563d
000003d0: fdd9 203c bfc1 63be 349b fb3e 9519 3abe
000003e0: f45d 2dbe 24fc 78bd 5edd d1bd afea 9f3d
000003f0: f7cf 8f3e 27d2 a73d 84d4 fa3d 8512 c63e
0.107654974 0.1091463 -0.32244584 -0.20615333 -0.09728991 -0.002619405 -0.2227031 -0.13743903
0.004323482 0.12197498 -0.17540348 0.04708098 -0.33916378 0.038695607 -0.038478237 -0.20969854
-0.08949147 0.06849527 0.011095248 -0.09623875 -0.030249868 -0.009845146 0.024926934 -0.06474728
-0.11960001 0.1322873 -0.07169816 0.00016912943 0.044221167 0.08639803 -0.24549821 -0.25007102
-0.1445312 -0.074815266 -0.035062473 0.06719436 0.086114295 -0.11801808 0.0662516 -0.17237553
-0.15513715 0.010911001 -0.02536357 -0.02077589 -0.14641093 -0.11591746 0.08808632 -0.03803157
-0.15428004 -0.09890897 -0.17581235 -0.025230777 -0.031463888 0.12828091 -0.0049230745 -0.12885459
-0.08489757 0.16399153 -0.01707156 0.09914609 0.17170185 -0.133387 -0.06332247 0.101261824
-0.42574346 -0.050637774 0.022118611 -1.2890382 -0.6353635 -0.072717376 -0.09036505 -0.30096322
-2.7555504 -1.5535723 0.8986429 -1.0475174 -1.3765334 -1.1898173 -1.2405415 0.038545635
0.43674535 0.63945204 -0.14213015 0.62617236 -0.087970905 -0.57535434 -0.10112927 -0.8513686
0.4779206 -0.14699303 -1.5141491 -2.1015172 -1.6370337 0.3989932 0.15740669 0.02647282
-0.2494797 -0.20718643 0.41905817 -0.338594 0.34013838 -0.084267944 0.010737707 0.112470135
-0.30123585 -0.04523322 0.2601465 -0.31036815 0.060934544 -0.25059983 -0.003022151 0.16731964
-0.7061817 -0.027298974 0.4036765 0.09351624 0.0029677665 -0.34717375 0.33428994 0.036989406
-0.16776732 -0.09443757 -0.36626014 -0.21330349 -0.31317878 0.26219112 -0.72811955 0.20668583
1.1311276 -1.7174873 0.25412902 -1.5826343 -1.3756999 -0.02605639 -0.13328452 -1.049262
-0.31501973 0.8113424 -0.6336445 -0.109259695 0.00017331883 -0.22442514 -0.4469713 -0.0775857
-0.8000147 -0.2289165 0.25086322 -3.1800547 0.093146615 -0.8349455 0.26631287 0.016953297
-1.2330428 0.14065497 0.15084255 -0.7089474 -0.62779194 0.72395366 -0.08502661 0.23336083
0.035066552 0.06900672 0.2681735 0.16967763 0.07593381 0.13424245 -0.10425105 0.24884222
-0.57604676 -0.59542865 -0.050575767 0.29802686 -0.05053728 -0.26552418 -0.42066017 0.12387715
-0.14437722 -0.06674993 0.29053622 0.040737174 -0.12612917 -0.15916407 0.3706241 -0.41842684
-0.46127698 -0.07682744 -0.020083424 0.17364019 -0.07417192 0.21197507 0.100255854 0.19832733
0.06016029 0.056679953 -0.25083438 -0.12803099 -0.15065041 -0.04349364 -0.32025817 -0.2270859
0.114684835 0.030895926 -0.16959794 -0.04554566 -0.22926085 0.0031421843 0.0045782197 0.027951445
-0.03955834 0.17773767 -0.03169385 -0.31876418 0.10993704 0.046691667 -0.07380055 -0.21242075
0.021610074 0.17093357 0.11708618 0.09526275 0.03603296 0.0092176 -0.10310091 -0.2060983
0.34389806 0.008048642 0.41208208 -0.26208276 0.2551219 -0.043482907 0.15662584 0.26290488
-0.23583402 0.058387037 0.28177336 -0.2331803 0.22794688 -0.09272214 -0.40864885 0.2052683
-0.21839741 -0.019325284 0.4936898 0.052457724 0.009817597 -0.22241877 0.49141848 -0.18173821
-0.16930372 -0.060787335 -0.102473006 0.07808434 0.28088352 0.0819438 0.122475654 0.38686004

fc3.bias f4 [16]
00000000: 6cb5 b0bd c4e3 43be f4d5 debe 71a9 793f
00000010: 12c8 44be 7ee3 6f3f 6dc5 04be 01d5 863f
00000020: 1c00 823f 826c c13e ffcc 1abf fcf2 c5be
00000030: 39f7 23be c8c4 703f b947 333f cfb8 3b3f
-0.086283535 -0.19129854 -0.43522608 0.9752417 -0.19216946 0.937065 -0.12965937 1.0533754
1.0156283 0.37778097 -0.6046905 -0.38661945 -0.16012277 0.94050264 0.70031315 0.7332887

fc4.weight f4 [1, 16]
00000000: 9250 84be 5d70 4ebc 6add ddbd a644 da3e
00000010: 6223 fdbe fb7b 883e 5fa0 4ebe 1a70 013f
00000020: 714e ec3e c1e5 03be 3c05 25bf fba4 57bf
00000030: 503c 98be c1b0 323e 910d 1c3f e00e 7f3e
-0.2584272 -0.012600032 -0.10833247 0.426305 -0.49441057 0.2665709 -0.20178364 0.5056168
0.46153596 -0.12880613 -0.6446111 -0.84236115 -0.29733515 0.17450239 0.609582 0.24908018
