torch2matlab/DDPG_actor.onnx (onnx, 12704 bytes, 7 tensors)

fc.0.weight f4 [64, 3]
-0.015180862 -0.8344112 -0.1370296 0.6216675 0.34002674 0.13753329 -0.046659034 0.7109839
0.1265029 -0.55655235 -0.09073183 0.5351861 0.060328737 0.47376227 0.077196375 -0.35937846
-0.3252098 0.32572365 0.7756555 0.7058995 0.5407097 0.3758817 1.1601619 0.23986025
-0.14248112 -0.49294922 0.4630958 0.5455473 0.6150757 0.5074178 -0.6216568 1.0678557
0.45414925 0.17221628 0.23814996 -0.31207126 0.67445695 0.77819896 0.4534922 -0.29465345
0.32082906 0.4347169 -0.37364888 -0.45900506 0.533292 -0.93466216 -0.68619287 0.042583305
0.49355882 0.058968756 -0.47850403 0.21646087 -0.46317157 0.262355 0.77512974 -0.652721
-0.32747468 -0.21184002 0.44123492 -0.4323694 0.36185178 0.42376626 0.04081074 0.4225855
0.6158855 0.17222118 -0.8156207 0.15985511 0.463463 -0.40282136 -0.06403608 -0.43833128
0.027878258 -0.28796402 0.20157897 -0.39429107 0.07134894 0.3649957 0.38795248 0.13988382
0.05589799 0.5008972 -0.7965661 -0.08382582 0.2008437 -1.0022788 -0.3561769 0.43227115
-1.0897874 -0.0949166 0.4033117 -0.17510764 0.4701025 -0.04119657 0.61277616 -0.46146727
-0.1311704 -0.064993106 0.4435231 -0.30176482 0.5245721 -0.30182666 -0.41367543 0.5766357
-0.47872916 0.59344643 0.38097674 -0.15338638 -0.054053977 -0.5491317 0.39205915 0.63259435
0.11072873 0.2866921 -0.1525698 -1.0709802 -0.18373744 0.7741941 -0.22416805 0.39366204
0.23635879 -0.18172449 0.3080322 0.28053042 -0.38003314 0.38390693 0.54970175 -0.6043018
-0.44328 -0.60578144 0.34330732 0.44156495 0.33425 -0.2186418 -0.015053792 -0.38180554
-0.7229111 0.40645137 -0.5866155 -0.3371983 0.593423 -0.3968813 -0.9664457 -0.4829246
0.41118324 0.09760561 0.16596045 0.27593243 -0.49794284 -0.39524397 0.57020384 0.43771836
-0.04830909 -0.68921375 0.4696847 -0.07221838 -0.5668527 -0.66191316 0.039405923 0.59466314
0.77950937 0.14126943 0.43400434 -0.106715344 -0.5170888 -0.49515396 -0.3717207 -0.14788578
-0.72187585 -0.36052504 -0.1991307 0.73855597 -0.19004916 0.44885483 -0.43760574 0.40069997
0.27436253 0.7669626 0.57991433 0.51596296 0.6203023 -0.86349183 -0.015823238 -0.021786718
0.86826164 0.15307997 -0.8840797 0.82094735 0.513812 0.6554505 -0.7682292 -0.35629794
00000000: 26b9 78bc f99b 55bf 7d51 0cbe 9a25 1f3f
00000010: fc17 ae3e 87d5 0c3e 8b1d 3fbd 0a03 363f
00000020: fa89 013e 377a 0ebf 9cd1 b9bd f501 093f
00000030: 441b 773d f890 f23e 2219 9e3d 7400 b8be
00000040: e681 a6be 40c5 a63e 5c91 463f d4b5 343f
00000050: f36b 0a3f 9173 c03e 2f80 943f ed9d 753e
00000060: 92e6 11be d763 fcbe e51a ed3e fda8 0b3f
00000070: 9a75 1d3f 22e6 013f e624 1fbf 7faf 883f
00000080: 4086 e83e 7759 303e 95dd 733e cec7 9fbe
00000090: 36a9 2c3f 0c38 473f 2130 e83e d1dc 96be
000000a0: b543 a43e 3793 de3e e84e bfbe b602 ebbe
000000b0: d385 083f 0546 6fbf 56aa 2fbf d56b 2e3d
000000c0: beb3 fc3e 3989 713d 7bfe f4be eba7 5d3e
000000d0: d324 edbe 6553 863e e76e 463f b918 27bf
000000e0: c3aa a7be 97ec 58be 8be9 e13e 865f ddbe
000000f0: a344 b93e e4f7 d83e 2a29 273d 205d d83e
00000100: acaa 1d3f c05a 303e 85cc 50bf 0fb1 233e
00000110: 064b ed3e 9a3e cebe 5925 83bd f56c e0be
00000120: f260 e43c 0570 93be b86a 4e3e 85e0 c9be
00000130: 651f 923d b7e0 ba3e b5a1 c63e b43d 0f3e
00000140: 4af5 643d cd3a 003f c2eb 4bbf dfac abbd
00000150: f9a9 4d3e ac4a 80bf d25c b6be a552 dd3e
00000160: 277e 8bbf a263 c2bd df7e ce3e 6b4f 33be
00000170: 46b1 f03e bcbd 28bd e6de 1c3f 7045 ecbe
00000180: 8951 06be 1b1b 85bd 7615 e33e eb80 9abe
00000190: 5b4a 063f 0689 9abe 44cd d3be 669e 133f
000001a0: fd1b f5be 1bec 173f 620f c33e 5211 1dbe
000001b0: b467 5dbd e593 0cbf fabb c83e b4f1 213f
000001c0: bfc5 e23d 4fc9 923e 423b 1cbe e115 89bf
000001d0: ab25 3cbe 9631 463f 4f8c 65be 128e c93e
000001e0: 0a08 723e fc15 3abe 66b6 9d3e afa1 8f3e
000001f0: b493 c2be 738f c43e 41b9 0c3f 86b3 1abf
00000200: 99f5 e2be 7e14 1bbf fac5 af3e cd14 e23e
00000210: d122 ab3e a3e3 5fbe 2ea4 76bc 047c c3be
00000220: b410 39bf 651a d03e 6f2c 16bf 41a5 acbe
00000230: 92ea 173f 0734 cbbe fc68 77bf e541 f7be
00000240: 9c86 d23e 73e5 c73d 89f1 293e 0447 8d3e
00000250: 5df2 febe 6b5d cabe e1f8 113f 9f1c e03e
00000260: c1df 45bd 5070 30bf 837a f03e 3be7 93bd
00000270: 421d 11bf 2473 29bf 1b68 213d d83b 183f
00000280: ed8d 473f efa8 103e d135 de3e 938d dabd
00000290: ee5f 04bf d284 fdbe 2d52 bebe 5f6f 17be
000002a0: dbcc 38bf bd96 b8be ebe8 4bbe 0112 3d3f
000002b0: 3f9c 42be 4dd0 e53e dc0d e0be 8c28 cd3e
000002c0: 3f79 8c3e a957 443f 4475 143f 2616 043f
000002d0: 22cc 1e3f cd0d 5dbf bc9f 81bc 0f7a b2bc
000002e0: 6546 5e3f ffc0 1c3e 0c53 62bf 9b29 523f
000002f0: 2f89 033f 9bcb 273f abaa 44bf af6c b6be

fc.0.bias f4 [64]
0.56789285 0.2241939 0.2894195 0.70217896 0.09028543 0.5226107 -0.16200146 0.25583166
0.69213265 -0.4040157 0.13444157 -0.62331045 -0.17976186 0.3907264 0.67986286 -0.22749825
-0.7206672 -0.45095465 -0.5061541 0.41879028 -0.087769374 -0.14809217 0.15236929 0.49788195
0.48083442 0.1140537 0.08203806 0.31491676 0.25111723 0.008180846 -0.7323425 0.58389425
0.6551933 0.5132988 0.16823114 0.01654675 -0.21860923 -0.57229745 0.47540095 -0.029416747
-0.73392355 0.45345134 -0.42879322 0.3869513 -0.57644355 -0.2916294 -0.3067938 -0.023574542
0.01714181 0.1389709 -0.046688847 -0.52736676 0.13120024 0.10521752 -0.112321556 0.21107587
0.49841207 -0.27124083 0.028154248 -0.49755943 -0.03808646 0.30060926 0.71516484 -0.5381419
00000000: 6d61 113f 1693 653e cb2e 943e 00c2 333f
00000010: 91e7 b83d d1c9 053f b6e3 25be 5efc 823e
00000020: 9b2f 313f 25db cebe 0dab 093e 4691 1fbf
00000030: 7e13 38be 4a0d c83e 7e0b 2e3f 4df5 68be
00000040: a57d 38bf 87e3 e6be 5193 01bf ae6b d63e
00000050: 6ec0 b3bd 79a5 17be b206 1c3e 62ea fe3e
00000060: ee2f f63e fc94 e93d 9203 a83d c53c a13e
00000070: 7092 803e f508 063c cc7a 3bbf 187a 153f
00000080: c0ba 273f 8d67 033f c944 2c3e 0d8d 873c
00000090: 19db 5fbe 1682 12bf c167 f33e 64fb f0bc
000000a0: 6ae2 3bbf c62a e83e c98a dbbe 7b1e c63e
000000b0: ce91 13bf 7350 95be 1414 9dbe 661f c1bc
000000c0: fb6c 8c3c 634e 0e3e ce3c 3fbd 8201 07bf
000000d0: 5b59 063e 487c d73d d808 e6bd 4624 583e
000000e0: de2f ff3e 14e0 8abe bda3 e63c 1cc0 febe
000000f0: 8c00 1cbd 75e9 993e 0b15 373f abc3 09bf

fc.2.weight f4 [32, 64]
0.13627991 0.052571807 -0.13650765 0.03594376 -0.1018971 0.20491785 -0.13319172 -0.05566788
0.26348078 -0.037978955 0.27607405 0.11427978 -0.04998356 0.22435859 0.1627277 -0.20072062
0.18957229 -0.46438798 0.2512186 0.08152752 -0.2956562 -0.14473355 0.15175006 0.065163605
0.15293461 0.10212095 -0.0037670734 0.016846482 0.04832892 0.054702647 -0.18223026 -0.08143107
0.021797122 -0.028762592 -0.098566756 0.005719524 -0.043303233 -0.21943232 0.12799495 0.12348911
-0.23119935 0.079456866 0.13245293 0.19800276 -0.112561524 0.07820116 -0.054935027 -0.042304058
0.009460888 -0.0071576885 0.14854331 0.08761406 -0.49747226 -0.12713555 0.102332786 -0.06423151
-0.17680041 0.059260044 0.24053119 -0.053718578 0.32470542 -0.15585978 0.13547577 0.21742347
0.013687942 0.12689932 -0.06080408 0.08007321 -0.025186583 0.250015 -0.10423462 -0.08749232
0.056660052 0.026716081 0.18203038 0.07187935 -0.096608624 0.17689794 0.18694614 -0.2207609
0.08661191 -0.4299282 0.32666117 -0.005293468 -0.08185333 -0.055306964 0.06493943 -0.051500387
0.17278679 0.022873512 0.2121436 0.15020645 0.05487896 0.12768349 -0.078164 0.023091929
0.033951264 0.052264582 -0.049167372 0.11560625 0.07105347 -0.31379038 -0.03869255 0.023494452
-0.36023706 0.12312067 0.15914789 0.016748913 0.10575174 0.063969165 0.023948608 -0.09208996
0.062546715 0.014843499 0.09240621 0.02874791 -0.33333227 0.09760044 0.018874165 -0.17768097
-0.022907253 -0.01981771 0.1427562 -0.26096612 0.26199204 -0.029675072 0.2891951 0.27518517
0.04976441 0.19921982 0.16184832 0.015303722 0.15395957 0.009967535 0.13640647 0.056638785
-0.15858598 0.13815683 -0.14294557 -0.0024330528 0.22588563 -0.1931802 -0.04978348 0.34453788
-0.10409903 0.35608014 -0.32855654 0.11279104 0.23210147 0.19798987 -0.17797206 -0.0011097088
-0.08069541 -0.014078176 -0.055381577 0.00050471997 -0.027574627 -0.17933522 0.04563532 -0.01170784
0.0012444691 -0.071695484 0.056828696 0.06587773 -0.032827437 0.41628468 -0.016663924 0.088440925
0.3785053 -0.11792337 -0.120554976 -0.14363594 0.07330103 0.11066298 -0.051817518 0.17776287
0.07253282 -0.033156246 0.028479831 -0.11850132 0.6103775 0.10100695 0.021627992 0.24379203
0.22977172 0.14660616 -0.054583933 0.19387542 -0.11995421 0.2694732 -0.17983307 -0.16034187
0.109176375 0.06389179 -0.17823158 0.04503782 -0.052535072 0.042283867 -0.06656826 -0.029268615
0.12945436 -0.07482937 0.23711377 0.19895363 -0.012665757 0.1588407 0.08650103 -0.13845895
0.079148136 -0.3675043 0.37597325 0.08881404 -0.34537235 -0.21854466 -0.038517445 -0.030445863
0.11000759 0.108186126 0.1275925 0.20962739 0.11212431 0.11749873 -0.13637923 0.021935724
0.1609791 0.017688349 0.047771942 -0.019282488 -0.009763459 -0.4141351 0.05538447 -0.10363165
-0.23974696 0.063630305 0.23264259 0.1888652 -0.009665996 -0.13905907 0.025623798 -0.10890154
0.0635075 -0.04736552 -0.028550992 0.017466078 -0.48135823 -0.08076056 0.051627573 -0.24383976
-0.17507133 -0.1687729 -0.023092765 -0.20748089 0.18654385 0.010350781 0.20433238 0.26741827
00000000: f68c 0b3e 8955 573d a9c8 0bbe c439 133d
00000010: 6daf d0bd fcd5 513e 6963 08be 0104 64bd
00000020: f4e6 863e d28f 1bbd 9459 8d3e 840b ea3d
00000030: 90bb 4cbd 42be 653e 17a2 263e b589 4dbe
00000040: 3d1f 423e 43c4 edbe b99f 803e e7f7 a63d
00000050: 4060 97be 0835 14be 5e64 1b3e 7f74 853d
00000060: e49a 1c3e ca24 d13d 01e1 76bb a201 8a3c
00000070: 8cf4 453d e20f 603d 929a 3abe 55c5 a6bd
00000080: e18f b23c 879f ebbc 5edd c9bd d86a bb3b
00000090: bb5e 31bd deb2 60be 1c11 033e dce7 fc3d
000000a0: 86bf 6cbe 48ba a23d bea1 073e 3cc1 4a3e
000000b0: a886 e6bd ee27 a03d 8d03 61bd 0547 2dbd
000000c0: d701 1b3c 0b8b eabb bd1b 183e 006f b33d
000000d0: afb4 febe d22f 02be da93 d13d cf8b 83bd
000000e0: 2b0b 35be a9ba 723d cf4d 763e 0308 5cbd
000000f0: ca3f a63e b599 1fbe 29ba 0a3e 42a4 5e3e
00000100: 6443 603c e5f1 013e b30d 79bd 6cfd a33d
00000110: 1854 cebc f701 803e f678 d5bd 2c2f b3bd
00000120: 5f14 683d afdb da3c 2c66 3a3e 7b35 933d
00000130: beda c5bd bc24 353e cf6e 3f3e 250f 62be
00000140: 9661 b13d 8d1f dcbe 2240 a73e d474 adbb
00000150: b8a2 a7bd 8e89 62bd f7fe 843d 12f2 52bd
00000160: 05ef 303e 3b61 bb3c 2c3c 593e b8cf 193e
00000170: c3c8 603d 76bf 023e 7214 a0bd 492b bd3c
00000180: 7b10 0b3d 6313 563d ba63 49bd f8c2 ec3d
00000190: 7b84 913d 22a9 a0be 147c 1ebd 7077 c03c
000001a0: fe70 b8be b126 fc3d aaf7 223e 0435 893c
000001b0: 5e94 d83d 4402 833d df2f c43c a999 bcbd
000001c0: 7e18 803d 2632 733c 783f bd3d bd80 eb3c
000001d0: 87aa aabe bde2 c73d fe9d 9a3c 00f2 35be
000001e0: fea7 bbbc c058 a2bc ae2e 123e 5a9d 85be
000001f0: d223 863e 2319 f3bc 6111 943e 12e5 8c3e
00000200: c4d5 4b3d 4800 4c3e 91bb 253e 76bc 7a3c
00000210: 94a7 1d3e df4e 233c 23ae 0b3e 12fe 673d
00000220: 5d64 22be fc78 0d3e 5360 12be da73 1fbb
00000230: 904e 673e 08d1 45be c3e9 4bbd 4567 b03e
00000240: df31 d5bd 2350 b63e 9038 a8be fdfe e63d
00000250: 02ac 6d3e dbbd 4a3e 4f3e 36be a673 91ba
00000260: a343 a5bd 26a8 66bc cbd7 62bd 2f4f 043a
00000270: 2fe4 e1bc a7a3 37be 1aec 3a3d 3dd2 3fbc
00000280: 741d a33a 15d5 92bd 35c5 683d e7ea 863d
00000290: 1076 06bd 4423 d53e c882 88bc 8420 b53d
000002a0: 72cb c13e cf81 f1bd 87e5 f6bd 4d15 13be
000002b0: da1e 963d 46a3 e23d 9b3e 54bd 7807 363e
000002c0: 168c 943d d8ce 07bd 894e e93c d2b0 f2bd
000002d0: b341 1c3f bbdc ce3d 302d b13c 9ea4 793e
000002e0: 4749 6b3e ed1f 163e 6793 5fbd 4787 463e
000002f0: 8eaa f5bd 64f8 893e 2926 38be a930 24be
00000300: dd97 df3d b3d9 823d 5782 36be 9479 383d
00000310: 042f 57bd d931 2d3d f154 88bd bcc4 efbc
00000320: af8f 043e 2440 99bd f4cd 723e 80ba 4b3e
00000330: 0984 4fbc 23a7 223e 7427 b13d 2fc8 0dbe
00000340: 6b18 a23d 8629 bcbe 917f c03e 23e4 b53d
00000350: a5d4 b0be 2cca 5fbe 78c4 1dbd 9a69 f9bc
00000360: a94b e13d b090 dd3d 9ca7 023e 90a8 563e
00000370: 6ea1 e53d 2da3 f03d ffa6 0bbe 8cb2 b33c
00000380: b5d7 243e 28e7 903c 83ac 433d 4ff6 9dbc
00000390: eaf6 1fbc 8409 d4be d3da 623d d53c d4bd
000003a0: 3a80 75be 9b50 823d dc39 6e3e e165 413e
000003b0: 205e 1ebc 8065 0ebe 00e9 d13c c507 dfbd
000003c0: 3810 823d 5902 42bd c5e3 e9bc 0515 8f3c
000003d0: 9674 f6be cb65 a5bd 6f77 533d 21b1 79be
000003e0: e645 33be ced2 2cbe 0a2d bdbc df75 54be
000003f0: 5a05 3f3e 5296 293c 823c 513e 0ceb 883e

fc.2.bias f4 [32]
0.114477254 0.20057401 0.07577685 0.10040084 0.0051459693 0.1569989 0.050798953 0.017935742
-0.09149193 0.1514148 -0.13302027 0.09946199 0.052896522 0.010301445 -0.04008378 -0.00985479
0.055235144 0.17381531 0.16764486 -0.12058771 0.026126383 0.086956814 0.03546543 0.15882444
0.10341459 0.16154048 0.124945015 0.017621726 0.116009735 0.25913593 0.009219103 -0.051815476
00000000: 0d73 ea3d 4663 4d3e e530 9b3d f59e cd3d
00000010: 859f a83b 52c4 203e 9012 503d faed 923c
00000020: 1f60 bbbd 7b0c 1b3e 7736 08be bab2 cb3d
00000030: 06aa 583d 64c7 283c e42e 24bd fc75 21bc
00000040: 3f3e 623d a4fc 313e 18ab 2b3e b0f6 f6bd
00000050: ff06 d63c 6a16 b23d 3344 113d e0a2 223e
00000060: 07cb d33d de6a 253e 2ce3 ff3d 705b 903c
00000070: 8396 ed3d 77ad 843e b80b 173c 773c 54bd

fc.4.weight f4 [16, 32]
0.3180675 0.37806505 -0.3490887 0.39356536 -0.37322676 -0.3149065 -0.13406402 0.21694404
0.36634272 0.0052845455 0.37689197 -0.29051206 0.17276022 0.31719694 0.15486048 -0.3361629
-0.4079273 -0.13960336 0.34540808 0.0017293062 0.39551613 -0.09599399 -0.372643 -0.42674518
0.31374663 -0.35566214 -0.08035129 -0.005479406 0.0068995254 0.13257065 -0.4047881 0.17300506
-0.003102087 -0.12138198 0.3980399 -0.109190226 0.52031523 0.7187297 0.03194642 -0.19531089
-0.17332566 0.08533675 -0.46189177 -0.088839926 -0.28906357 -0.2847002 -0.084181376 0.29769397
0.80311894 0.27775764 0.032520443 0.14351228 -0.29117876 0.53722835 0.22826408 0.29114744
-0.31871063 0.7993584 0.3520812 0.13412052 0.07081902 0.16300812 0.4800871 -0.16071656
-0.07436398 -0.07987505 0.40478566 -0.31921214 0.2869677 0.48046935 0.12083211 -0.2543161
-0.19010198 0.27018368 -0.57720155 -0.3128127 -0.044621352 -0.2764213 -0.06726964 0.55599785
0.6828318 0.33244446 -0.19959828 0.14405133 -0.14735816 0.35995638 0.3032686 0.42008397
-0.1888518 0.6040301 0.42701685 -0.11249291 -0.07147391 0.042824626 0.5630078 0.1616393
0.026074868 0.06922512 -0.10062617 0.14113052 -0.14586723 -0.1381138 -0.072567105 -0.100538805
-0.06564428 -0.15795632 -0.09181959 0.12941223 -0.15499105 -0.09014101 -0.17353651 0.012777441
0.14001748 0.10672852 -0.114226 -0.16947791 -0.13262062 0.022694789 -0.07026599 -0.10406448
0.021527767 -0.101335905 0.020468472 -0.06591514 0.13043228 -0.04963196 -0.106017366 0.11869033
-0.18267584 -0.046248622 0.3837061 -0.16985147 0.4328198 0.5946345 -0.013429377 -0.30433202
-0.1382555 0.26482114 -0.25844222 0.29983926 -0.13936284 0.09423422 -0.036055468 0.27581027
0.6306704 0.3407945 -0.31475613 0.13598707 -0.24800585 0.3498303 0.3956767 0.5524925
-0.13689196 0.56785244 0.08585166 0.008451686 0.15877631 -0.07160023 0.32047632 -0.05610418
-0.3405146 -0.082271256 0.332532 -0.16658124 0.20528597 0.53839785 0.14670682 -0.050923716
-0.0690316 0.1279497 -0.375244 -0.25225756 -0.18871552 -0.13871676 0.03834419 0.57775867
0.44270507 0.4874082 -0.14677306 -0.07491446 -0.18673153 0.49176532 0.28268263 0.009973988
0.019517016 0.46407145 0.4542273 -0.093553886 -0.11113384 -0.13894057 0.5701094 0.14254048
0.22184184 0.23150434 -0.2645002 0.32238957 -0.28850862 -0.5775495 0.01784518 0.32532156
0.40490243 -0.020282598 0.5338017 -0.38901192 0.23764767 0.27607256 0.10086508 -0.29375467
-0.6040055 -0.20349544 0.11637474 -0.08373813 0.09772137 -0.4043393 -0.08810417 -0.49723637
0.2899291 -0.48090473 0.01338911 -0.1185252 -0.068081036 0.3410048 -0.44942176 -0.09477922
-0.22480853 0.08036913 0.4505273 -0.25451317 0.4426334 0.47805896 0.058885124 -0.058918614
-0.34455073 0.19763733 -0.20254046 -0.09201654 -0.32777154 -0.082945615 -0.105655745 0.38974622
0.60584235 0.24309534 -0.02387366 -0.09868931 -0.21834369 0.31450802 0.3927408 0.1638805
-0.24625355 0.581836 0.43050805 0.12618335 0.07608366 0.008902302 0.3352259 0.13009636
00000000: bed9 a23e be91 c13e c1bb b2be 6681 c93e
00000010: 9417 bfbe 6d3b a1be 1448 09be 9426 5e3e
00000020: 4691 bb3e fb29 ad3b fcf7 c03e ffbd 94be
00000030: 0ee8 303e a367 a23e bf93 1e3e 8b1d acbe
00000040: d9db d0be 2ff4 0ebe 54d9 b03e e3a9 e23a
00000050: 1781 ca3e 7f98 c4bd 10cb bebe 587e dabe
00000060: 66a3 a03e 5919 b6be 388f a4bd 978c b3bb
00000070: 6a15 e23b 9ac0 073e 6340 cfbe 3d28 313e
00000080: 624c 4bbb 1e97 f8bd e3cb cb3e 209f dfbd
00000090: 6133 053f abfe 373f 40da 023d 94ff 47be
000000a0: 487c 31be 09c5 ae3d 147d ecbe b5f1 b5bd
000000b0: 2400 94be 3ac4 91be 4967 acbd 586b 983e
000000c0: 3499 4d3f 4036 8e3e 2834 053d e2f4 123e
000000d0: 6215 95be cc87 093f 0fbe 693e 4711 953e
000000e0: 0a2e a3be c1a2 4c3f fd43 b43e e456 093e
000000f0: 9009 913d 9aeb 263e facd f53e e292 24be
00000100: 244c 98bd 8895 a3bd 1140 cf3e c66f a3be
00000110: 6eed 923e 1400 f63e d376 f73d b835 82be
00000120: 18aa 42be 8455 8a3e 7bc3 13bf fc28 a0be
00000130: e1c4 36bd 1887 8dbe aac4 89bd e055 0e3f
00000140: 11ce 2e3f 2936 aa3e 7e63 4cbe 3182 133e
00000150: 0fe5 16be 344c b83e 0646 9b3e 3f15 d73e
00000160: 5e62 41be b7a1 1a3f f4a1 da3e af62 e6bd
00000170: ea60 92bd e068 2f3d 4721 103f c684 253e
00000180: f69a d53c e6c5 8d3d 1815 cebd 8584 103e
00000190: 385e 15be b46d 0dbe 109e 94bd 4ae7 cdbd
000001a0: 8270 86bd 4dbf 21be e90b bcbd a484 043e
000001b0: f9b5 1ebe da9b b8bd 8eb3 31be 7958 513c
000001c0: be60 0f3e 7b94 da3d 52ef e9bd 9e8b 2dbe
000001d0: b3cd 07be 6cea b93c 9ee7 8fbd c21f d5bd
000001e0: 005b b03c 3389 cfbd 7fad a73c 84fe 86bd
000001f0: 0a90 053e e24a 4bbd a21f d9bd ea13 f33d
00000200: 600f 3bbe 326f 3dbd 2075 c43e 8bed 2dbe
00000210: 8f9a dd3e f739 183f e406 5cbc 68d1 9bbe
00000220: da92 0dbe a396 873e 8a52 84be 8884 993e
00000230: 22b5 0ebe dffd c03d e6ae 13bd 0137 8d3e
00000240: 9e73 213f 9e7c ae3e b727 a1be 3240 0b3e
00000250: 3ff5 7dbe f51c b33e 2396 ca3e 2670 0d3f
00000260: 682d 0cbe c75e 113f ffd2 af3d f178 0a3c
00000270: 4296 223e 24a3 92bd 7915 a43e 7fcd 65bd
00000280: ee57 aebe d57d a8bd a241 aa3e 4694 2abe
00000290: 7c36 523e 71d4 093f 503a 163e 6395 50bd
000002a0: 7160 8dbd 3f05 033e fb1f c0be e727 81be
000002b0: a43e 41be c40b 0ebe cc0e 1d3d fee7 133f
000002c0: 3daa e23e 918d f93e ad4b 16be c16c 99bd
000002d0: 8d36 3fbe aac8 fb3e c7bb 903e f069 233c
000002e0: 26e2 9f3c c69a ed3e 7b90 e83e 2e99 bfbd
000002f0: 249a e3bd 7046 0ebe b1f2 113f 22f6 113e
00000300: 822a 633e 790f 6d3e 926c 87be 3f10 a53e
00000310: 67b7 93be 49da 13bf 0e30 923c 8c90 a63e
00000320: 5f4f cf3e b127 a6bc 3aa7 083f 922c c7be
00000330: e959 733e 6259 8d3e 5a92 ce3d 0367 96be
00000340: 1ba0 1abf 1c61 50be e155 ee3d e67e abbd
00000350: 2422 c83d 9005 cfbe f66f b4bd c495 febe
00000360: 9671 943e 2539 f6be ff5d 5b3c 57bd f2bd
00000370: 126e 8bbd 2e98 ae3e 9c1a e6be 9c1b c2bd
00000380: 3534 66be 9298 a43d 84ab e63e 8d4f 82be
00000390: d8a0 e23e 25c4 f43e 8731 713d a554 71bd
000003a0: f468 b0be 7161 4a3e c466 4fbe 2b73 bcbd
000003b0: acd1 a7be 64df a9bd 0a62 d8bd d18c c73e
000003c0: 7c18 1b3f fced 783e b292 c3bc 9f1d cabd
000003d0: 7d95 5fbe 3207 a13e 5215 c93e 4ad0 273e
000003e0: e429 7cbe 34f3 143f 8d6b dc3e 3536 013e
000003f0: c0d1 9b3d f6da 113c bba2 ab3e fb37 053e

fc.4.bias f4 [16]
0.018650472 0.0773263 0.2571648 0.081667624 0.14149155 0.22682784 0.19539018 0.08702531
0.23085006 0.030755658 -0.008074405 -0.07704597 0.16220728 -0.13584156 -0.116954215 -0.06558293
00000000: e0c8 983c 405d 9e3d 1bab 833e 5b41 a73d
00000010: 29e3 103e 8f45 683e 5d14 483e 533a b23d
00000020: f563 6c3e 4af3 fb3c 824a 04bc 47ca 9dbd
00000030: aa19 263e 0d1a 0bbe b185 efbd 5850 86bd

fc.6.weight f4 [1, 16]
0.60663265 -1.8083396 -1.4365765 -0.13026312 -1.0990486 -1.467012 0.79062605 -1.3822693
0.6244041 -0.8358269 -1.4292545 -1.2268982 -1.2746956 0.16632734 -0.93402016 0.20218016
00000000: 474c 1b3f ac77 e7bf bde1 b7bf b263 05be
00000010: a0ad 8cbf 0dc7 bbbf 7866 4a3f 33ee b0bf
00000020: f2d8 1f3f c0f8 55bf d0f1 b6bf 000b 9dbf
00000030: 3a29 a3bf b751 2a3e f21b 6fbf 5108 4f3e
